…
4  192        ['conv2d_284[0][0]']             \n"," Normalization)                 )                                                                 \n","                                                                                                  \n"," activation_284 (Activation)    (None, 147, 147, 64  0           ['batch_normalization_287[0][0]']\n","                                )                                                                 \n","                                                                                                  \n"," max_pooling2d_12 (MaxPooling2D  (None, 73, 73, 64)  0           ['activation_284[0][0]']         \n"," )                                                                                                \n","                                                                                                  \n"," conv2d_285 (Conv2D)            (None, 73, 73, 80)   5120        ['max_pooling2d_12[0][0]']       \n","                                                                                                  \n"," batch_normalization_288 (Batch  (None, 73, 73, 80)  240         ['conv2d_285[0][0]']             \n"," Normalization)                                                                                   \n","                                                                                                  \n"," activation_285 (Activation)    (None, 73, 73, 80)   0           ['batch_normalization_288[0][0]']\n","                                                                                                  \n"," conv2d_286 (Conv2D)            (None, 71, 71, 192)  138240      ['activation_285[0][0]']         \n","                                                                                                  \n"," batch_normalization_289 (Batch  (None, 71, 71, 192)  576        ['conv2d_286[0][0]']             \n"," Normalization)                                                                                   \n","                                                                                                  \n"," activation_286 (Activation)    (None, 71, 71, 192)  0           ['batch_normalization_289[0][0]']\n","                                                                                                  \n"," max_pooling2d_13 (MaxPooling2D  (None, 35, 35, 192)  0          ['activation_286[0][0]']         \n"," )                                                                                                \n","                                                                                                  \n"," conv2d_290 (Conv2D)            (None, 35, 35, 64)   12288       ['max_pooling2d_13[0][0]']       \n","                                                                                                  \n"," batch_normalization_293 (Batch  (None, 35, 35, 64)  192         ['conv2d_290[0][0]']             \n"," Normalization)                                                                                   \n","                                                                                                  \n"," activation_290 (Activation)    (None, 35, 35, 64)   0           ['batch_normalization_293[0][0]']\n","                                                                                                  \n"," conv2d_288 (Conv2D)            (None, 35, 35, 48)   9216        ['max_pooling2d_13[0][0]']       \n","                                                                                                  \n"," conv2d_291 (Conv2D)            (None, 35, 35, 96)   55296       ['activation_290[0][0]']         \n","                                                                                                  \n"," batch_normalization_291 (Batch  (None, 35, 35, 48)  144         ['conv2d_288[0][0]']             \n"," Normalization)                                                                                   \n","                                                                                                  \n"," batch_normalization_294 (Batch  (None, 35, 35, 96)  288         ['conv2d_291[0][0]']             \n"," Normalization)                                                                                   \n","                                                                                                  \n"," activation_288 (Activation)    (None, 35, 35, 48)   0           ['batch_normalization_291[0][0]']\n","                                                                                                  \n"," activation_291 (Activation)    (None, 35, 35, 96)   0           ['batch_normalization_294[0][0]']\n","                                                                                                  \n"," average_pooling2d_27 (AverageP  (None, 35, 35, 192)  0          ['max_pooling2d_13[0][0]']       \n"," ooling2D)                                                                                        \n","                                                                                                  \n"," conv2d_287 (Conv2D)            (None, 35, 35, 64)   12288       ['max_pooling2d_13[0][0]']       \n","                                                                                                  \n"," conv2d_289 (Conv2D)            (None, 35, 35, 64)   76800       ['activation_288[0][0]']         \n","                                                                                                  \n"," conv2d_292 (Conv2D)            (None, 35, 35, 96)   82944       ['activation_291[0][0]']         \n","                                                                                                  \n"," conv2d_293 (Conv2D)            (None, 35, 35, 32)   6144        ['average_pooling2d_27[0][0]']   \n","                                                                                                  \n"," batch_normalization_290 (Batch  (None, 35, 35, 64)  192         ['conv2d_287[0][0]']             \n"," Normalization)                                                                                   \n","                                                                                                  \n"," batch_normalization_292 (Batch  (None, 35, 35, 64)  192         ['conv2d_289[0][0]']             \n"," Normalization)                                                                                   \n","                                                                                                  \n"," batch_normalization_295 (Batch  (None, 35, 35, 96)  288         ['conv2d_292[0][0]']             \n"," Normalization)                                                                                   \n","                                                                                                  \n"," batch_normalization_296 (Batch  (None, 35, 35, 32)  96          ['conv2d_293[0][0]']             \n"," Normalization)                                                                                   \n","                                                                                                  \n"," activation_287 (Activation)    (None, 35, 35, 64)   0           ['batch_normalization_290[0][0]']\n","                                                                                                  \n"," activation_289 (Activation)    (None, 35, 35, 64)   0           ['batch_normalization_292[0][0]']\n","                                                                                                  \n"," activation_292 (Activation)    (None, 35, 35, 96)   0           ['batch_normalization_295[0][0]']\n","                                                                                                  \n"," activation_293 (Activation)    (None, 35, 35, 32)   0           ['batch_normalization_296[0][0]']\n","                                                                                                  \n"," mixed0 (Concatenate)           (None, 35, 35, 256)  0           ['activation_287[0][0]',         \n","                                                                  'activation_289[0][0]',         \n","                                                                  'activation_292[0][0]',         \n","                                                                  'activation_293[0][0]']         \n","                                                                                                  \n"," conv2d_297 (Conv2D)            (None, 35, 35, 64)   16384       ['mixed0[0][0]']                 \n","                                                                                                  \n"," batch_normalization_300 (Batch  (None, 35, 35, 64)  192         ['conv2d_297[0][0]']             \n"," Normalization)                                                                                   \n","                                                                                                  \n"," activation_297 (Activation)    (None, 35, 35, 64)   0           ['batch_normalization_300[0][0]']\n","                                                                                                  \n"," conv2d_295 (Conv2D)            (None, 35, 35, 48)   12288       ['mixed0[0][0]']                 \n","                                                                                                  \n"," conv2d_298 (Conv2D)            (None, 35, 35, 96)   55296       ['activation_297[0][0]']         \n","                                                                                                  \n"," batch_normalization_298 (Batch  (None, 35, 35, 48)  144         ['conv2d_295[0][0]']             \n"," Normalization)                                                                                   \n","                                                                                                  \n"," batch_normalization_301 (Batch  (None, 35, 35, 96)  288         ['conv2d_298[0][0]']             \n"," Normalization)                                                                                   \n","                                                                                                  \n"," activation_295 (Activation)    (None, 35, 35, 48)   0           ['batch_normalization_298[0][0]']\n","                                                                                                  \n"," activation_298 (Activation)    (None, 35, 35, 96)   0           ['batch_normalization_301[0][0]']\n","                                                                                                  \n"," average_pooling2d_28 (AverageP  (None, 35, 35, 256)  0          ['mixed0[0][0]']                 \n"," ooling2D)                                                                                        \n","                                                                                                  \n"," conv2d_294 (Conv2D)            (None, 35, 35, 64)   16384       ['mixed0[0][0]']                 \n","                                                                                                  \n"," conv2d_296 (Conv2D)            (None, 35, 35, 64)   76800       ['activation_295[0][0]']         \n","                                                                                                  \n"," conv2d_299 (Conv2D)            (None, 35, 35, 96)   82944       ['activation_298[0][0]']         \n","                                                                                                  \n"," conv2d_300 (Conv2D)            (None, 35, 35, 64)   16384       ['average_pooling2d_28[0][0]']   \n","                                                                                                  \n"," batch_normalization_297 (Batch  (None, 35, 35, 64)  192         ['conv2d_294[0][0]']             \n"," Normalization)                                                                                   \n","                                                                                                  \n"," batch_normalization_299 (Batch  (None, 35, 35, 64)  192         ['conv2d_296[0][0]']             \n"," Normalization)                                                                                   \n","                                                                                                  \n"," batch_normalization_302 (Batch  (None, 35, 35, 96)  288         ['conv2d_299[0][0]']             \n"," Normalization)                                                                                   \n","                                                                                                  \n"," batch_normalization_303 (Batch  (None, 35, 35, 64)  192         ['conv2d_300[0][0]']             \n"," Normalization)                                                                                   \n","                                                                                                  \n"," activation_294 (Activation)    (None, 35, 35, 64)   0           ['batch_normalization_297[0][0]']\n","                                                                                                  \n"," activation_296 (Activation)    (None, 35, 35, 64)   0           ['batch_normalization_299[0][0]']\n","                                                                                                  \n"," activation_299 (Activation)    (None, 35, 35, 96)   0           ['batch_normalization_302[0][0]']\n","                                                                                                  \n"," activation_300 (Activation)    (None, 35, 35, 64)   0           ['batch_normalization_303[0][0]']\n","                                                                                                  \n"," mixed1 (Concatenate)           (None, 35, 35, 288)  0           ['activation_294[0][0]',         \n","                                                                  'activation_296[0][0]',         \n","                                                                  'activation_299[0][0]',         \n","                                                                  'activation_300[0][0]']         \n","                                                                                                  \n"," conv2d_304 (Conv2D)            (None, 35, 35, 64)   18432       ['mixed1[0][0]']                 \n","                                                                                                  \n"," batch_normalization_307 (Batch  (None, 35, 35, 64)  192         ['conv2d_304[0][0]']             \n"," Normalization)                                                                                   \n","                                                                                                  \n"," activation_304 (Activation)    (None, 35, 35, 64)   0           ['batch_normalization_307[0][0]']\n","                                                                                                  \n"," conv2d_302 (Conv2D)            (None, 35, 35, 48)   13824       ['mixed1[0][0]']                 \n","                                                                                                  \n"," conv2d_305 (Conv2D)            (None, 35, 35, 96)   55296       ['activation_304[0][0]']         \n","                                                                                                  \n"," batch_normalization_305 (Batch  (None, 35, 35, 48)  144         ['conv2d_302[0][0]']             \n"," Normalization)                                                                                   \n","                                                                                                  \n"," batch_normalization_308 (Batch  (None, 35, 35, 96)  288         ['conv2d_305[0][0]']             \n"," Normalization)                                                                                   \n","                                                                                                  \n"," activation_302 (Activation)    (None, 35, 35, 48)   0           ['batch_normalization_305[0][0]']\n","                                                                                                  \n"," activation_305 (Activation)    (None, 35, 35, 96)   0           ['batch_normalization_308[0][0]']\n","                                                                                                  \n"," average_pooling2d_29 (AverageP  (None, 35, 35, 288)  0          ['mixed1[0][0]']                 \n"," ooling2D)                                                                                        \n","                                                                                                  \n"," conv2d_301 (Conv2D)            (None, 35, 35, 64)   18432       ['mixed1[0][0]']                 \n","                                                                                                  \n"," conv2d_303 (Conv2D)            (None, 35, 35, 64)   76800       ['activation_302[0][0]']         \n","                                                                                                  \n"," conv2d_306 (Conv2D)            (None, 35, 35, 96)   82944       ['activation_305[0][0]']         \n","                                                                                                  \n"," conv2d_307 (Conv2D)            (None, 35, 35, 64)   18432       ['average_pooling2d_29[0][0]']   \n","                                                                                                  \n"," batch_normalization_304 (Batch  (None, 35, 35, 64)  192         ['conv2d_301[0][0]']             \n"," Normalization)                                                                                   \n","                                                                                                  \n"," batch_normalization_306 (Batch  (None, 35, 35, 64)  192         ['conv2d_303[0][0]']             \n"," Normalization)                                                                                   \n","                                                                                                  \n"," batch_normalization_309 (Batch  (None, 35, 35, 96)  288         ['conv2d_306[0][0]']             \n"," Normalization)                                                                                   \n","                                                                                                  \n"," batch_normalization_310 (Batch  (None, 35, 35, 64)  192         ['conv2d_307[0][0]']             \n"," Normalization)                                                                                   \n","                                                                                                  \n"," activation_301 (Activation)    (None, 35, 35, 64)   0           ['batch_normalization_304[0][0]']\n","                                                                                                  \n"," activation_303 (Activation)    (None, 35, 35, 64)   0           ['batch_normalization_306[0][0]']\n","                                                                                                  \n"," activation_306 (Activation)    (None, 35, 35, 96)   0           ['batch_normalization_309[0][0]']\n","                                                                                                  \n"," activation_307 (Activation)    (None, 35, 35, 64)   0           ['batch_normalization_310[0][0]']\n","                                                                                                  \n"," mixed2 (Concatenate)           (None, 35, 35, 288)  0           ['activation_301[0][0]',         \n","                                                                  'activation_303[0][0]',         \n","                                                                  'activation_306[0][0]',         \n","                                                                  'activation_307[0][0]']         \n","                                                                                                  \n"," conv2d_309 (Conv2D)            (None, 35, 35, 64)   18432       ['mixed2[0][0]']                 \n","                                                                                                  \n"," batch_normalization_312 (Batch  (None, 35, 35, 64)  192         ['conv2d_309[0][0]']             \n"," Normalization)                                                                                   \n","                                                                                                  \n"," activation_309 (Activation)    (None, 35, 35, 64)   0           ['batch_normalization_312[0][0]']\n","                                                                                                  \n"," conv2d_310 (Conv2D)            (None, 35, 35, 96)   55296       ['activation_309[0][0]']         \n","                                                                                                  \n"," batch_normalization_313 (Batch  (None, 35, 35, 96)  288         ['conv2d_310[0][0]']             \n"," Normalization)                                                                                   \n","                                                                                                  \n"," activation_310 (Activation)    (None, 35, 35, 96)   0           ['batch_normalization_313[0][0]']\n","                                                                                                  \n"," conv2d_308 (Conv2D)            (None, 17, 17, 384)  995328      ['mixed2[0][0]']                 \n","                                                                                                  \n"," conv2d_311 (Conv2D)            (None, 17, 17, 96)   82944       ['activation_310[0][0]']         \n","                                                                                                  \n"," batch_normalization_311 (Batch  (None, 17, 17, 384)  1152       ['conv2d_308[0][0]']             \n"," Normalization)                                                                                   \n","                                                                                                  \n"," batch_normalization_314 (Batch  (None, 17, 17, 96)  288         ['conv2d_311[0][0]']             \n"," Normalization)                                                                                   \n","                                                                                                  \n"," activation_308 (Activation)    (None, 17, 17, 384)  0           ['batch_normalization_311[0][0]']\n","                                                                                                  \n"," activation_311 (Activation)    (None, 17, 17, 96)   0           ['batch_normalization_314[0][0]']\n","                                                                                                  \n"," max_pooling2d_14 (MaxPooling2D  (None, 17, 17, 288)  0          ['mixed2[0][0]']                 \n"," )                                                                                                \n","                                                                                                  \n"," mixed3 (Concatenate)           (None, 17, 17, 768)  0           ['activation_308[0][0]',         \n","                                                                  'activation_311[0][0]',         \n","                                                                  'max_pooling2d_14[0][0]']       \n","                                                                                                  \n"," conv2d_316 (Conv2D)            (None, 17, 17, 128)  98304       ['mixed3[0][0]']                 \n","                                                                                                  \n"," batch_normalization_319 (Batch  (None, 17, 17, 128)  384        ['conv2d_316[0][0]']             \n"," Normalization)                                                                                   \n","                                                                                                  \n"," activation_316 (Activation)    (None, 17, 17, 128)  0           ['batch_normalization_319[0][0]']\n","                                                                                                  \n"," conv2d_317 (Conv2D)            (None, 17, 17, 128)  114688      ['activation_316[0][0]']         \n","                                                                                                  \n"," batch_normalization_320 (Batch  (None, 17, 17, 128)  384        ['conv2d_317[0][0]']             \n"," Normalization)                                                                                   \n","                                                                                                  \n"," activation_317 (Activation)    (None, 17, 17, 128)  0           ['batch_normalization_320[0][0]']\n","                                                                                                  \n"," conv2d_313 (Conv2D)            (None, 17, 17, 128)  98304       ['mixed3[0][0]']                 \n","                                                                                                  \n"," conv2d_318 (Conv2D)            (None, 17, 17, 128)  114688      ['activation_317[0][0]']         \n","                                                                                                  \n"," batch_normalization_316 (Batch  (None, 17, 17, 128)  384        ['conv2d_313[0][0]']             \n"," Normalization)                                                                                   \n","                                                                                                  \n"," batch_normalization_321 (Batch  (None, 17, 17, 128)  384        ['conv2d_318[0][0]']             \n"," Normalization)                                                                                   \n","                                                                                                  \n"," activation_313 (Activation)    (None, 17, 17, 128)  0           ['batch_normalization_316[0][0]']\n","                                                                                                  \n"," activation_318 (Activation)    (None, 17, 17, 128)  0           ['batch_normalization_321[0][0]']\n","                                                                                                  \n"," conv2d_314 (Conv2D)            (None, 17, 17, 128)  114688      ['activation_313[0][0]']         \n","                                                                                                  \n"," conv2d_319 (Conv2D)            (None, 17, 17, 128)  114688      ['activation_318[0][0]']         \n","                                                                                                  \n"," batch_normalization_317 (Batch  (None, 17, 17, 128)  384        ['conv2d_314[0][0]']             \n"," Normalization)                                                                                   \n","                                                                                                  \n"," batch_normalization_322 (Batch  (None, 17, 17, 128)  384        ['conv2d_319[0][0]']             \n"," Normalization)                                                                                   \n","                                                                                                  \n"," activation_314 (Activation)    (None, 17, 17, 128)  0           ['batch_normalization_317[0][0]']\n","                                                                                                  \n"," activation_319 (Activation)    (None, 17, 17, 128)  0           ['batch_normalization_322[0][0]']\n","                                                                                                  \n"," average_pooling2d_30 (AverageP  (None, 17, 17, 768)  0          ['mixed3[0][0]']                 \n"," ooling2D)                                                                                        \n","                                                                                                  \n"," conv2d_312 (Conv2D)            (None, 17, 17, 192)  147456      ['mixed3[0][0]']                 \n","                                                                                                  \n"," conv2d_315 (Conv2D)            (None, 17, 17, 192)  172032      ['activation_314[0][0]']         \n","                                                                                                  \n"," conv2d_320 (Conv2D)            (None, 17, 17, 192)  172032      ['activation_319[0][0]']         \n","                                                                                                  \n"," conv2d_321 (Conv2D)            (None, 17, 17, 192)  147456      ['average_pooling2d_30[0][0]']   \n","                                                                                                  \n"," batch_normalization_315 (Batch  (None, 17, 17, 192)  576        ['conv2d_312[0][0]']             \n"," Normalization)                                                                                   \n","                                                                                                  \n"," batch_normalization_318 (Batch  (None, 17, 17, 192)  576        ['conv2d_315[0][0]']             \n"," Normalization)                                                                                   \n","                                                                                                  \n"," batch_normalization_323 (Batch  (None, 17, 17, 192)  576        ['conv2d_320[0][0]']             \n"," Normalization)                                                                                   \n","                                                                                                  \n"," batch_normalization_324 (Batch  (None, 17, 17, 192)  576        ['conv2d_321[0][0]']             \n"," Normalization)                                                                                   \n","                                                                                                  \n"," activation_312 (Activation)    (None, 17, 17, 192)  0           ['batch_normalization_315[0][0]']\n","                                                                                                  \n"," activation_315 (Activation)    (None, 17, 17, 192)  0           ['batch_normalization_318[0][0]']\n","                                                                                                  \n"," activation_320 (Activation)    (None, 17, 17, 192)  0           ['batch_normalization_323[0][0]']\n","                                                                                                  \n"," activation_321 (Activation)    (None, 17, 17, 192)  0           ['batch_normalization_324[0][0]']\n","                                                                                                  \n"," mixed4 (Concatenate)           (None, 17, 17, 768)  0           ['activation_312[0][0]',         \n","                                                                  'activation_315[0][0]',         \n","                                                                  'activation_320[0][0]',         \n","                                                                  'activation_321[0][0]']         \n","                                                                                                  \n"," conv2d_326 (Conv2D)            (None, 17, 17, 160)  122880      ['mixed4[0][0]']                 \n","                                                                                                  \n"," batch_normalization_329 (Batch  (None, 17, 17, 160)  480        ['conv2d_326[0][0]']             \n"," Normalization)                                                                                   \n","                                                                                                  \n"," activation_326 (Activation)    (None, 17, 17, 160)  0           ['batch_normalization_329[0][0]']\n","                                                                                                  \n"," conv2d_327 (Conv2D)            (None, 17, 17, 160)  179200      ['activation_326[0][0]']         \n","                                                                                                  \n"," batch_normalization_330 (Batch  (None, 17, 17, 160)  480        ['conv2d_327[0][0]']             \n"," Normalization)                                                                                   \n","                                                                                                  \n"," activation_327 (Activation)    (None, 17, 17, 160)  0           ['batch_normalization_330[0][0]']\n","                                                                                                  \n"," conv2d_323 (Conv2D)            (None, 17, 17, 160)  122880      ['mixed4[0][0]']                 \n","                                                                                                  \n"," conv2d_328 (Conv2D)            (None, 17, 17, 160)  179200      ['activation_327[0][0]']         \n","                                                                                                  \n"," batch_normalization_326 (Batch  (None, 17, 17, 160)  480        ['conv2d_323[0][0]']             \n"," Normalization)                                                                                   \n","                                                                                                  \n"," batch_normalization_331 (Batch  (None, 17, 17, 160)  480        ['conv2d_328[0][0]']             \n"," Normalization)                                                                                   \n","                                                                                                  \n"," activation_323 (Activation)    (None, 17, 17, 160)  0           ['batch_normalization_326[0][0]']\n","                                                                                                  \n"," activation_328 (Activation)    (None, 17, 17, 160)  0           ['batch_normalization_331[0][0]']\n","                                                                                                  \n"," conv2d_324 (Conv2D)            (None, 17, 17, 160)  179200      ['activation_323[0][0]']         \n","                                                                                                  \n"," conv2d_329 (Conv2D)            (None, 17, 17, 160)  179200      ['activation_328[0][0]']         \n","                                                                                                  \n"," batch_normalization_327 (Batch  (None, 17, 17, 160)  480        ['conv2d_324[0][0]']             \n"," Normalization)                                                                                   \n","                                                                                                  \n"," batch_normalization_332 (Batch  (None, 17, 17, 160)  480        ['conv2d_329[0][0]']             \n"," Normalization)                                                                                   \n","                                                                                                  \n"," activation_324 (Activation)    (None, 17, 17, 160)  0           ['batch_normalization_327[0][0]']\n","                                                                                                  \n"," activation_329 (Activation)    (None, 17, 17, 160)  0           ['batch_normalization_332[0][0]']\n","                                                                                                  \n"," average_pooling2d_31 (AverageP  (None, 17, 17, 768)  0          ['mixed4[0][0]']                 \n"," ooling2D)                                                                                        \n","                                                                                                  \n"," conv2d_322 (Conv2D)            (None, 17, 17, 192)  147456      ['mixed4[0][0]']                 \n","                                                                                                  \n"," conv2d_325 (Conv2D)            (None, 17, 17, 192)  215040      ['activation_324[0][0]']         \n","                                                                                                  \n"," conv2d_330 (Conv2D)            (None, 17, 17, 192)  215040      ['activation_329[0][0]']         \n","                                                                                                  \n"," conv2d_331 (Conv2D)            (None, 17, 17, 192)  147456      ['average_pooling2d_31[0][0]']   \n","                                                                                                  \n"," batch_normalization_325 (Batch  (None, 17, 17, 192)  576        ['conv2d_322[0][0]']             \n"," Normalization)                                                                                   \n","                                                                                                  \n"," batch_normalization_328 (Batch  (None, 17, 17, 192)  576        ['conv2d_325[0][0]']             \n"," Normalization)                                                                                   \n","                                                                                                  \n"," batch_normalization_333 (Batch  (None, 17, 17, 192)  576        ['conv2d_330[0][0]']             \n"," Normalization)                                                                                   \n","                                                                                                  \n"," batch_normalization_334 (Batch  (None, 17, 17, 192)  576        ['conv2d_331[0][0]']             \n"," Normalization)                                                                                   \n","                                                                                                  \n"," activation_322 (Activation)    (None, 17, 17, 192)  0           ['batch_normalization_325[0][0]']\n","                                                                                                  \n"," activation_325 (Activation)    (None, 17, 17, 192)  0           ['batch_normalization_328[0][0]']\n","                                                                                                  \n"," activation_330 (Activation)    (None, 17, 17, 192)  0           ['batch_normalization_333[0][0]']\n","                                                                                                  \n"," activation_331 (Activation)    (None, 17, 17, 192)  0           ['batch_normalization_334[0][0]']\n","                                                                                                  \n"," mixed5 (Concatenate)           (None, 17, 17, 768)  0           ['activation_322[0][0]',         \n","                                                                  'activation_325[0][0]',         \n","                                                                  'activation_330[0][0]',         \n","                                                                  'activation_331[0][0]']         \n","                                                                                                  \n"," conv2d_336 (Conv2D)            (None, 17, 17, 160)  122880      ['mixed5[0][0]']                 \n","                                                                                                  \n"," batch_normalization_339 (Batch  (None, 17, 17, 160)  480        ['conv2d_336[0][0]']             \n"," Normalization)                                                                                   \n","                                                                                                  \n"," activation_336 (Activation)    (None, 17, 17, 160)  0           ['batch_normalization_339[0][0]']\n","                                                                                                  \n"," conv2d_337 (Conv2D)            (None, 17, 17, 160)  179200      ['activation_336[0][0]']         \n","                                                                                                  \n"," batch_normalization_340 (Batch  (None, 17, 17, 160)  480        ['conv2d_337[0][0]']             \n"," Normalization)                                                                                   \n","                                                                                                  \n"," activation_337 (Activation)    (None, 17, 17, 160)  0           ['batch_normalization_340[0][0]']\n","                                                                                                  \n"," conv2d_333 (Conv2D)            (None, 17, 17, 160)  122880      ['mixed5[0][0]']                 \n","                                                                                                  \n"," conv2d_338 (Conv2D)            (None, 17, 17, 160)  179200      ['activation_337[0][0]']         \n","                                                                                                  \n"," batch_normalization_336 (Batch  (None, 17, 17, 160)  480        ['conv2d_333[0][0]']             \n"," Normalization)                                                                                   \n","                                                                                                  \n"," batch_normalization_341 (Batch  (None, 17, 17, 160)  480        ['conv2d_338[0][0]']             \n"," Normalization)                                                                                   \n","                                                                                                  \n"," activation_333 (Activation)    (None, 17, 17, 160)  0           ['batch_normalization_336[0][0]']\n","                                                                                                  \n"," activation_338 (Activation)    (None, 17, 17, 160)  0           ['batch_normalization_341[0][0]']\n","                                                                                                  \n"," conv2d_334 (Conv2D)            (None, 17, 17, 160)  179200      ['activation_333[0][0]']         \n","                                                                                                  \n"," conv2d_339 (Conv2D)            (None, 17, 17, 160)  179200      ['activation_338[0][0]']         \n","                                                                                                  \n"," batch_normalization_337 (Batch  (None, 17, 17, 160)  480        ['conv2d_334[0][0]']             \n"," Normalization)                                                                                   \n","                                                                                                  \n"," batch_normalization_342 (Batch  (None, 17, 17, 160)  480        ['conv2d_339[0][0]']             \n"," Normalization)                                                                                   \n","                                                                                                  \n"," activation_334 (Activation)    (None, 17, 17, 160)  0           ['batch_normalization_337[0][0]']\n","                                                                                                  \n"," activation_339 (Activation)    (None, 17, 17, 160)  0           ['batch_normalization_342[0][0]']\n","                                                                                                  \n"," average_pooling2d_32 (AverageP  (None, 17, 17, 768)  0          ['mixed5[0][0]']                 \n"," ooling2D)                                                                                        \n","                                                                                                  \n"," conv2d_332 (Conv2D)            (None, 17, 17, 192)  147456      ['mixed5[0][0]']                 \n","                                                                                                  \n"," conv2d_335 (Conv2D)            (None, 17, 17, 192)  215040      ['activation_334[0][0]']         \n","                                                                                                  \n"," conv2d_340 (Conv2D)            (None, 17, 17, 192)  215040      ['activation_339[0][0]']         \n","                                                                                                  \n"," conv2d_341 (Conv2D)            (None, 17, 17, 192)  147456      ['average_pooling2d_32[0][0]']   \n","                                                                                                  \n"," batch_normalization_335 (Batch  (None, 17, 17, 192)  576        ['conv2d_332[0][0]']             \n"," Normalization)                                                                                   \n","                                                                                                  \n"," batch_normalization_338 (Batch  (None, 17, 17, 192)  576        ['conv2d_335[0][0]']             \n"," Normalization)                                                                                   \n","                                                                                                  \n"," batch_normalization_343 (Batch  (None, 17, 17, 192)  576        ['conv2d_340[0][0]']             \n"," Normalization)                                                                                   \n","                                                                                                  \n"," batch_normalization_344 (Batch  (None, 17, 17, 192)  576        ['conv2d_341[0][0]']             \n"," Normalization)                                                                                   \n","                                                                                                  \n"," activation_332 (Activation)    (None, 17, 17, 192)  0           ['batch_normalization_335[0][0]']\n","                                                                                                  \n"," activation_335 (Activation)    (None, 17, 17, 192)  0           ['batch_normalization_338[0][0]']\n","                                                                                                  \n"," activation_340 (Activation)    (None, 17, 17, 192)  0           ['batch_normalization_343[0][0]']\n","                                                                                                  \n"," activation_341 (Activation)    (None, 17, 17, 192)  0           ['batch_normalization_344[0][0]']\n","                                                                                                  \n"," mixed6 (Concatenate)           (None, 17, 17, 768)  0           ['activation_332[0][0]',         \n","                                                                  'activation_335[0][0]',         \n","                                                                  'activation_340[0][0]',         \n","                                                                  'activation_341[0][0]']         \n","                                                                                                  \n"," conv2d_346 (Conv2D)            (None, 17, 17, 192)  147456      ['mixed6[0][0]']                 \n","                                                                                                  \n"," batch_normalization_349 (Batch  (None, 17, 17, 192)  576        ['conv2d_346[0][0]']             \n"," Normalization)                                                                                   \n","                                                                                                  \n"," activation_346 (Activation)    (None, 17, 17, 192)  0           ['batch_normalization_349[0][0]']\n","                                                                                                  \n"," conv2d_347 (Conv2D)            (None, 17, 17, 192)  258048      ['activation_346[0][0]']         \n","                                                                                                  \n"," batch_normalization_350 (Batch  (None, 17, 17, 192)  576        ['conv2d_347[0][0]']             \n"," Normalization)                                                                                   \n","                                                                                                  \n"," activation_347 (Activation)    (None, 17, 17, 192)  0           ['batch_normalization_350[0][0]']\n","                                                                                                  \n"," conv2d_343 (Conv2D)            (None, 17, 17, 192)  147456      ['mixed6[0][0]']                 \n","                                                                                                  \n"," conv2d_348 (Conv2D)            (None, 17, 17, 192)  258048      ['activation_347[0][0]']         \n","                                                                                                  \n"," batch_normalization_346 (Batch  (None, 17, 17, 192)  576        ['conv2d_343[0][0]']             \n"," Normalization)                                                                                   \n","                                                                                                  \n"," batch_normalization_351 (Batch  (None, 17, 17, 192)  576        ['conv2d_348[0][0]']             \n"," Normalization)                                                                                   \n","                                                                                                  \n"," activation_343 (Activation)    (None, 17, 17, 192)  0           ['batch_normalization_346[0][0]']\n","                                                                                                  \n"," activation_348 (Activation)    (None, 17, 17, 192)  0           ['batch_normalization_351[0][0]']\n","                                                                                                  \n"," conv2d_344 (Conv2D)            (None, 17, 17, 192)  258048      ['activation_343[0][0]']         \n","                                                                                                  \n"," conv2d_349 (Conv2D)            (None, 17, 17, 192)  258048      ['activation_348[0][0]']         \n","                                                                                                  \n"," batch_normalization_347 (Batch  (None, 17, 17, 192)  576        ['conv2d_344[0][0]']             \n"," Normalization)                                                                                   \n","                                                                                                  \n"," batch_normalization_352 (Batch  (None, 17, 17, 192)  576        ['conv2d_349[0][0]']             \n"," Normalization)                                                                                   \n","                                                                                                  \n"," activation_344 (Activation)    (None, 17, 17, 192)  0           ['batch_normalization_347[0][0]']\n","                                                                                                  \n"," activation_349 (Activation)    (None, 17, 17, 192)  0           ['batch_normalization_352[0][0]']\n","                                                                                                  \n"," average_pooling2d_33 (AverageP  (None, 17, 17, 768)  0          ['mixed6[0][0]']                 \n"," ooling2D)                                                                                        \n","                                                                                                  \n"," conv2d_342 (Conv2D)            (None, 17, 17, 192)  147456      ['mixed6[0][0]']                 \n","                                                                                                  \n"," conv2d_345 (Conv2D)            (None, 17, 17, 192)  258048      ['activation_344[0][0]']         \n","                                                                                                  \n"," conv2d_350 (Conv2D)            (None, 17, 17, 192)  258048      ['activation_349[0][0]']         \n","                                                                                                  \n"," conv2d_351 (Conv2D)            (None, 17, 17, 192)  147456      ['average_pooling2d_33[0][0]']   \n","                                                                                                  \n"," batch_normalization_345 (Batch  (None, 17, 17, 192)  576        ['conv2d_342[0][0]']             \n"," Normalization)                                                                                   \n","                                                                                                  \n"," batch_normalization_348 (Batch  (None, 17, 17, 192)  576        ['conv2d_345[0][0]']             \n"," Normalization)                                                                                   \n","                                                                                                  \n"," batch_normalization_353 (Batch  (None, 17, 17, 192)  576        ['conv2d_350[0][0]']             \n"," Normalization)                                                                                   \n","                                                                                                  \n"," batch_normalization_354 (Batch  (None, 17, 17, 192)  576        ['conv2d_351[0][0]']             \n"," Normalization)                                                                                   \n","                                                                                                  \n"," activation_342 (Activation)    (None, 17, 17, 192)  0           ['batch_normalization_345[0][0]']\n","                                                                                                  \n"," activation_345 (Activation)    (None, 17, 17, 192)  0           ['batch_normalization_348[0][0]']\n","                                                                                                  \n"," activation_350 (Activation)    (None, 17, 17, 192)  0           ['batch_normalization_353[0][0]']\n","                                                                                                  \n"," activation_351 (Activation)    (None, 17, 17, 192)  0           ['batch_normalization_354[0][0]']\n","                                                                                                  \n"," mixed7 (Concatenate)           (None, 17, 17, 768)  0           ['activation_342[0][0]',         \n","                                                                  'activation_345[0][0]',         \n","                                                                  'activation_350[0][0]',         \n","                                                                  'activation_351[0][0]']         \n","                                                                                                  \n"," conv2d_354 (Conv2D)            (None, 17, 17, 192)  147456      ['mixed7[0][0]']                 \n","                                                                                                  \n"," batch_normalization_357 (Batch  (None, 17, 17, 192)  576        ['conv2d_354[0][0]']             \n"," Normalization)                                                                                   \n","                                                                                                  \n"," activation_354 (Activation)    (None, 17, 17, 192)  0           ['batch_normalization_357[0][0]']\n","                                                                                                  \n"," conv2d_355 (Conv2D)            (None, 17, 17, 192)  258048      ['activation_354[0][0]']         \n","                                                                                                  \n"," batch_normalization_358 (Batch  (None, 17, 17, 192)  576        ['conv2d_355[0][0]']             \n"," Normalization)                                                                                   \n","                                                                                                  \n"," activation_355 (Activation)    (None, 17, 17, 192)  0           ['batch_normalization_358[0][0]']\n","                                                                                                  \n"," conv2d_352 (Conv2D)            (None, 17, 17, 192)  147456      ['mixed7[0][0]']                 \n","                                                                                                  \n"," conv2d_356 (Conv2D)            (None, 17, 17, 192)  258048      ['activation_355[0][0]']         \n","                                                                                                  \n"," batch_normalization_355 (Batch  (None, 17, 17, 192)  576        ['conv2d_352[0][0]']             \n"," Normalization)                                                                                   \n","                                                                                                  \n"," batch_normalization_359 (Batch  (None, 17, 17, 192)  576        ['conv2d_356[0][0]']             \n"," Normalization)                                                                                   \n","                                                                                                  \n"," activation_352 (Activation)    (None, 17, 17, 192)  0           ['batch_normalization_355[0][0]']\n","                                                                                                  \n"," activation_356 (Activation)    (None, 17, 17, 192)  0           ['batch_normalization_359[0][0]']\n","                                                                                                  \n"," conv2d_353 (Conv2D)            (None, 8, 8, 320)    552960      ['activation_352[0][0]']         \n","                                                                                                  \n"," conv2d_357 (Conv2D)            (None, 8, 8, 192)    331776      ['activation_356[0][0]']         \n","                                                                                                  \n"," batch_normalization_356 (Batch  (None, 8, 8, 320)   960         ['conv2d_353[0][0]']             \n"," Normalization)                                                                                   \n","                                                                                                  \n"," batch_normalization_360 (Batch  (None, 8, 8, 192)   576         ['conv2d_357[0][0]']             \n"," Normalization)                                                                                   \n","                                                                                                  \n"," activation_353 (Activation)    (None, 8, 8, 320)    0           ['batch_normalization_356[0][0]']\n","                                                                                                  \n"," activation_357 (Activation)    (None, 8, 8, 192)    0           ['batch_normalization_360[0][0]']\n","                                                                                                  \n"," max_pooling2d_15 (MaxPooling2D  (None, 8, 8, 768)   0           ['mixed7[0][0]']                 \n"," )                                                                                                \n","                                                                                                  \n"," mixed8 (Concatenate)           (None, 8, 8, 1280)   0           ['activation_353[0][0]',         \n","                                                                  'activation_357[0][0]',         \n","                                                                  'max_pooling2d_15[0][0]']       \n","                                                                                                  \n"," conv2d_362 (Conv2D)            (None, 8, 8, 448)    573440      ['mixed8[0][0]']                 \n","                                                                                                  \n"," batch_normalization_365 (Batch  (None, 8, 8, 448)   1344        ['conv2d_362[0][0]']             \n"," Normalization)                                                                                   \n","                                                                                                  \n"," activation_362 (Activation)    (None, 8, 8, 448)    0           ['batch_normalization_365[0][0]']\n","                                                                                                  \n"," conv2d_359 (Conv2D)            (None, 8, 8, 384)    491520      ['mixed8[0][0]']                 \n","                                                                                                  \n"," conv2d_363 (Conv2D)            (None, 8, 8, 384)    1548288     ['activation_362[0][0]']         \n","                                                                                                  \n"," batch_normalization_362 (Batch  (None, 8, 8, 384)   1152        ['conv2d_359[0][0]']             \n"," Normalization)                                                                                   \n","                                                                                                  \n"," batch_normalization_366 (Batch  (None, 8, 8, 384)   1152        ['conv2d_363[0][0]']             \n"," Normalization)                                                                                   \n","                                                                                                  \n"," activation_359 (Activation)    (None, 8, 8, 384)    0           ['batch_normalization_362[0][0]']\n","                                                                                                  \n"," activation_363 (Activation)    (None, 8, 8, 384)    0           ['batch_normalization_366[0][0]']\n","                                                                                                  \n"," conv2d_360 (Conv2D)            (None, 8, 8, 384)    442368      ['activation_359[0][0]']         \n","                                                                                                  \n"," conv2d_361 (Conv2D)            (None, 8, 8, 384)    442368      ['activation_359[0][0]']         \n","                                                                                                  \n"," conv2d_364 (Conv2D)            (None, 8, 8, 384)    442368      ['activation_363[0][0]']         \n","                                                                                                  \n"," conv2d_365 (Conv2D)            (None, 8, 8, 384)    442368      ['activation_363[0][0]']         \n","                                                                                                  \n"," average_pooling2d_34 (AverageP  (None, 8, 8, 1280)  0           ['mixed8[0][0]']                 \n"," ooling2D)                                                                                        \n","                                                                                                  \n"," conv2d_358 (Conv2D)            (None, 8, 8, 320)    409600      ['mixed8[0][0]']                 \n","                                                                                                  \n"," batch_normalization_363 (Batch  (None, 8, 8, 384)   1152        ['conv2d_360[0][0]']             \n"," Normalization)                                                                                   \n","                                                                                                  \n"," batch_normalization_364 (Batch  (None, 8, 8, 384)   1152        ['conv2d_361[0][0]']             \n"," Normalization)                                                                                   \n","                                                                                                  \n"," batch_normalization_367 (Batch  (None, 8, 8, 384)   1152        ['conv2d_364[0][0]']             \n"," Normalization)                                                                                   \n","                                                                                                  \n"," batch_normalization_368 (Batch  (None, 8, 8, 384)   1152        ['conv2d_365[0][0]']             \n"," Normalization)                                                                                   \n","                                                                                                  \n"," conv2d_366 (Conv2D)            (None, 8, 8, 192)    245760      ['average_pooling2d_34[0][0]']   \n","                                                                                                  \n"," batch_normalization_361 (Batch  (None, 8, 8, 320)   960         ['conv2d_358[0][0]']             \n"," Normalization)                                                                                   \n","                                                                                                  \n"," activation_360 (Activation)    (None, 8, 8, 384)    0           ['batch_normalization_363[0][0]']\n","                                                                                                  \n"," activation_361 (Activation)    (None, 8, 8, 384)    0           ['batch_normalization_364[0][0]']\n","                                                                                                  \n"," activation_364 (Activation)    (None, 8, 8, 384)    0           ['batch_normalization_367[0][0]']\n","                                                                                                  \n"," activation_365 (Activation)    (None, 8, 8, 384)    0           ['batch_normalization_368[0][0]']\n","                                                                                                  \n"," batch_normalization_369 (Batch  (None, 8, 8, 192)   576         ['conv2d_366[0][0]']             \n"," Normalization)                                                                                   \n","                                                                                                  \n"," activation_358 (Activation)    (None, 8, 8, 320)    0           ['batch_normalization_361[0][0]']\n","                                                                                                  \n"," mixed9_0 (Concatenate)         (None, 8, 8, 768)    0           ['activation_360[0][0]',         \n","                                                                  'activation_361[0][0]']         \n","                                                                                                  \n"," concatenate_6 (Concatenate)    (None, 8, 8, 768)    0           ['activation_364[0][0]',         \n","                                                                  'activation_365[0][0]']         \n","                                                                                                  \n"," activation_366 (Activation)    (None, 8, 8, 192)    0           ['batch_normalization_369[0][0]']\n","                                                                                                  \n"," mixed9 (Concatenate)           (None, 8, 8, 2048)   0           ['activation_358[0][0]',         \n","                                                                  'mixed9_0[0][0]',               \n","                                                                  'concatenate_6[0][0]',          \n","                                                                  'activation_366[0][0]']         \n","                                                                                                  \n"," conv2d_371 (Conv2D)            (None, 8, 8, 448)    917504      ['mixed9[0][0]']                 \n","                                                                                                  \n"," batch_normalization_374 (Batch  (None, 8, 8, 448)   1344        ['conv2d_371[0][0]']             \n"," Normalization)                                                                                   \n","                                                                                                  \n"," activation_371 (Activation)    (None, 8, 8, 448)    0           ['batch_normalization_374[0][0]']\n","                                                                                                  \n"," conv2d_368 (Conv2D)            (None, 8, 8, 384)    786432      ['mixed9[0][0]']                 \n","                                                                                                  \n"," conv2d_372 (Conv2D)            (None, 8, 8, 384)    1548288     ['activation_371[0][0]']         \n","                                                                                                  \n"," batch_normalization_371 (Batch  (None, 8, 8, 384)   1152        ['conv2d_368[0][0]']             \n"," Normalization)                                                                                   \n","                                                                                                  \n"," batch_normalization_375 (Batch  (None, 8, 8, 384)   1152        ['conv2d_372[0][0]']             \n"," Normalization)                                                                                   \n","                                                                                                  \n"," activation_368 (Activation)    (None, 8, 8, 384)    0           ['batch_normalization_371[0][0]']\n","                                                                                                  \n"," activation_372 (Activation)    (None, 8, 8, 384)    0           ['batch_normalization_375[0][0]']\n","                                                                                                  \n"," conv2d_369 (Conv2D)            (None, 8, 8, 384)    442368      ['activation_368[0][0]']         \n","                                                                                                  \n"," conv2d_370 (Conv2D)            (None, 8, 8, 384)    442368      ['activation_368[0][0]']         \n","                                                                                                  \n"," conv2d_373 (Conv2D)            (None, 8, 8, 384)    442368      ['activation_372[0][0]']         \n","                                                                                                  \n"," conv2d_374 (Conv2D)            (None, 8, 8, 384)    442368      ['activation_372[0][0]']         \n","                                                                                                  \n"," average_pooling2d_35 (AverageP  (None, 8, 8, 2048)  0           ['mixed9[0][0]']                 \n"," ooling2D)                                                                                        \n","                                                                                                  \n"," conv2d_367 (Conv2D)            (None, 8, 8, 320)    655360      ['mixed9[0][0]']                 \n","                                                                                                  \n"," batch_normalization_372 (Batch  (None, 8, 8, 384)   1152        ['conv2d_369[0][0]']             \n"," Normalization)                                                                                   \n","                                                                                                  \n"," batch_normalization_373 (Batch  (None, 8, 8, 384)   1152        ['conv2d_370[0][0]']             \n"," Normalization)                                                                                   \n","                                                                                                  \n"," batch_normalization_376 (Batch  (None, 8, 8, 384)   1152        ['conv2d_373[0][0]']             \n"," Normalization)                                                                                   \n","                                                                                                  \n"," batch_normalization_377 (Batch  (None, 8, 8, 384)   1152        ['conv2d_374[0][0]']             \n"," Normalization)                                                                                   \n","                                                                                                  \n"," conv2d_375 (Conv2D)            (None, 8, 8, 192)    393216      ['average_pooling2d_35[0][0]']   \n","                                                                                                  \n"," batch_normalization_370 (Batch  (None, 8, 8, 320)   960         ['conv2d_367[0][0]']             \n"," Normalization)                                                                                   \n","                                                                                                  \n"," activation_369 (Activation)    (None, 8, 8, 384)    0           ['batch_normalization_372[0][0]']\n","                                                                                                  \n"," activation_370 (Activation)    (None, 8, 8, 384)    0           ['batch_normalization_373[0][0]']\n","                                                                                                  \n"," activation_373 (Activation)    (None, 8, 8, 384)    0           ['batch_normalization_376[0][0]']\n","                                                                                                  \n"," activation_374 (Activation)    (None, 8, 8, 384)    0           ['batch_normalization_377[0][0]']\n","                                                                                                  \n"," batch_normalization_378 (Batch  (None, 8, 8, 192)   576         ['conv2d_375[0][0]']             \n"," Normalization)                                                                                   \n","                                                                                                  \n"," activation_367 (Activation)    (None, 8, 8, 320)    0           ['batch_normalization_370[0][0]']\n","                                                                                                  \n"," mixed9_1 (Concatenate)         (None, 8, 8, 768)    0           ['activation_369[0][0]',         \n","                                                                  'activation_370[0][0]']         \n","                                                                                                  \n"," concatenate_7 (Concatenate)    (None, 8, 8, 768)    0           ['activation_373[0][0]',         \n","                                                                  'activation_374[0][0]']         \n","                                                                                                  \n"," activation_375 (Activation)    (None, 8, 8, 192)    0           ['batch_normalization_378[0][0]']\n","                                                                                                  \n"," mixed10 (Concatenate)          (None, 8, 8, 2048)   0           ['activation_367[0][0]',         \n","                                                                  'mixed9_1[0][0]',               \n","                                                                  'concatenate_7[0][0]',          \n","                                                                  'activation_375[0][0]']         \n","                                                                                                  \n"," global_average_pooling2d_3 (Gl  (None, 2048)        0           ['mixed10[0][0]']                \n"," obalAveragePooling2D)                                                                            \n","                                                                                                  \n"," batch_normalization_379 (Batch  (None, 2048)        8192        ['global_average_pooling2d_3[0][0\n"," Normalization)                                                  ]']                              \n","                                                                                                  \n"," dropout_8 (Dropout)            (None, 2048)         0           ['batch_normalization_379[0][0]']\n","                                                                                                  \n"," dense_8 (Dense)                (None, 512)          1049088     ['dropout_8[0][0]']              \n","                                                                                                  \n"," dropout_9 (Dropout)            (None, 512)          0           ['dense_8[0][0]']                \n","                                                                                                  \n"," dense_9 (Dense)                (None, 2)            1026        ['dropout_9[0][0]']              \n","                                                                                                  \n","==================================================================================================\n","Total params: 22,861,090\n","Trainable params: 9,554,626\n","Non-trainable params: 13,306,464\n","__________________________________________________
…
